…
6","outputId":"7771ae88-6fde-457c-d2f2-5e87a9562e26","executionInfo":{"status":"ok","timestamp":1699046718606,"user_tz":-330,"elapsed":995,"user":{"displayName":"Paras Sharma","userId":"15936778771491663974"}}},"source":["model = create_LRCN_model()"],"execution_count":null,"outputs":[{"output_type":"stream","name":"stdout","text":["Model: \"sequential\"\n","_________________________________________________________________\n"," Layer (type)                Output Shape              Param #   \n","=================================================================\n"," time_distributed (TimeDist  (None, 30, 64, 64, 32)    896       \n"," ributed)                                                        \n","                                                                 \n"," time_distributed_1 (TimeDi  (None, 30, 16, 16, 32)    0         \n"," stributed)                                                      \n","                                                                 \n"," time_distributed_2 (TimeDi  (None, 30, 16, 16, 64)    18496     \n"," stributed)                                                      \n","                                                                 \n"," time_distributed_3 (TimeDi  (None, 30, 4, 4, 64)      0         \n"," stributed)                                                      \n","                                                                 \n"," time_distributed_4 (TimeDi  (None, 30, 4, 4, 128)     73856     \n"," stributed)                                                      \n","                                                                 \n"," time_distributed_5 (TimeDi  (None, 30, 2, 2, 128)     0         \n"," stributed)                                                      \n","                                                                 \n"," time_distributed_6 (TimeDi  (None, 30, 2, 2, 256)     131328    \n"," stributed)                                                      \n","                                                                 \n"," time_distributed_7 (TimeDi  (None, 30, 1, 1, 256)     0         \n"," stributed)                                                      \n","                                                                 \n"," time_distributed_8 (TimeDi  (None, 30, 256)           0         \n"," stributed)                                                      \n","                                                                 \n"," lstm (LSTM)                 (None, 32)                36992     \n","                                                                 \n"," dense (Dense)               (None, 5)                 165       \n","                                                                 \n","=================================================================\n","Total params: 261733 (1022.39 KB)\n","Trainable params: 261733 (1022.39 KB)\n","Non-trainable params: 0 (0.00 Byte)\n","_________________________________________________________________\n"]}]},{"cell_type":"code","source":["plot_model(model, to_fil
…
